…
ts.
Model: "model"
__________________________________________________________________________________________________
 Layer (type)                   Output Shape         Param #     Connected to
==================================================================================================
 u_vel (InputLayer)             [(None, 256, 256)]   0           []
 v_vel (InputLayer)             [(None, 256, 256)]   0           []
 w_vel (InputLayer)             [(None, 256, 256)]   0           []
 pr0.2 (InputLayer)             [(None, 256, 256)]   0           []
 periodic_padding2d (PeriodicPa  (None, 272, 272)    0           ['u_vel[0][0]']
 dding2D)
 periodic_padding2d_1 (Periodic  (None, 272, 272)    0           ['v_vel[0][0]']
 Padding2D)
 periodic_padding2d_2 (Periodic  (None, 272, 272)    0           ['w_vel[0][0]']
 Padding2D)
 periodic_padding2d_3 (Periodic  (None, 272, 272)    0           ['pr0.2[0][0]']
 Padding2D)
 reshape (Reshape)              (None, 272, 272, 1)  0           ['periodic_padding2d[0][0]']
 reshape_1 (Reshape)            (None, 272, 272, 1)  0           ['periodic_padding2d_1[0][0]']
 reshape_2 (Reshape)            (None, 272, 272, 1)  0           ['periodic_padding2d_2[0][0]']
 reshape_3 (Reshape)            (None, 272, 272, 1)  0           ['periodic_padding2d_3[0][0]']
 concatenate (Concatenate)      (None, 272, 272, 4)  0           ['reshape[0][0]',
                                                                  'reshape_1[0][0]',
                                                                  'reshape_2[0][0]',
                                                                  'reshape_3[0][0]']
 batch_normalization (BatchNorm  (None, 272, 272, 4)  16         ['concatenate[0][0]']
 alization)
 conv2d (Conv2D)                (None, 268, 268, 64  6464        ['batch_normalization[0][0]']
                                )
 batch_normalization_1 (BatchNo  (None, 268, 268, 64  256        ['conv2d[0][0]']
 rmalization)                   )
 conv2d_1 (Conv2D)              (None, 266, 266, 12  73856       ['batch_normalization_1[0][0]']
                                8)
…
